…
Training samples: 1497 Test samples: 375
Starting automated hyperparameter tuning...
Reloading Tuner from tuner_dir/qoe_tuning/tuner0.json
Best hyperparameters found:
{'hidden_units': 96, 'num_layers': 4, 'dropout_rate': 0.5, 'learning_rate': 0.001, 'tuner/epochs': 7, 'tuner/initial_epoch': 3, 'tuner/bracket': 2, 'tuner/round': 1, 'tuner/trial_id': '0003'}
Model: "sequential"
_________________________________________________________________
 Layer (type)                Output Shape              Param #   
=================================================================
 flatten (Flatten)           (None, 225)               0         
                                                                 
 dense (Dense)               (None, 64)                14464     
                                                                 
 dropout (Dropout)           (None, 64)                0         
                                                                 
 dense_1 (Dense)             (None, 32)                2080      
                                                                 
 dropout_1 (Dropout)         (None, 32)                0         
                                                                 
 dense_2 (Dense)             (None, 1)                 33        
                                                                 
=================================================================
Total params: 16,577
Trainable params: 16,577
Non-trainable params: 0
_________________________________________________________________
Epoch 1/20
 1/75 [..............................] - ETA: 1:15 - loss: 0.3846
…
Training samples: 1497 Test samples: 375
Starting automated hyperparameter tuning...
Reloading Tuner from tuner_dir/qoe_tuning/tuner0.json
Best hyperparameters found:
{'hidden_units': 96, 'num_layers': 4, 'dropout_rate': 0.5, 'learning_rate': 0.001, 'tuner/epochs': 7, 'tuner/initial_epoch': 3, 'tuner/bracket': 2, 'tuner/round': 1, 'tuner/trial_id': '0003'}
Model: "sequential"
_________________________________________________________________
 Layer (type)                Output Shape              Param #   
=================================================================
 lstm (LSTM)                 (None, 5, 96)             54528     
                                                                 
 lstm_1 (LSTM)               (None, 5, 96)             74112     
                                                                 
 lstm_2 (LSTM)               (None, 5, 96)             74112     
                                                                 
 lstm_3 (LSTM)               (None, 5, 96)             74112     
                                                                 
 self_attention (SelfAttenti  (None, 96)               12544     
 on)                                                             
                                                                 
 dense (Dense)               (None, 25)                2425      
                                                                 
 dense_1 (Dense)             (None, 1)                 26        
                                                                 
=================================================================
Total params: 291,859
Trainable params: 291,859
Non-trainable params: 0
_________________________________________________________________
Epoch 1/20
 1/75 [..............................] - ETA: 10:58 - loss: 0.3486
…
Training samples: 1497 Test samples: 375
Starting automated hyperparameter tuning...
Reloading Tuner from tuner_dir/qoe_tuning/tuner0.json
Best hyperparameters found:
{'hidden_units': 96, 'num_layers': 4, 'dropout_rate': 0.5, 'learning_rate': 0.001, 'tuner/epochs': 7, 'tuner/initial_epoch': 3, 'tuner/bracket': 2, 'tuner/round': 1, 'tuner/trial_id': '0003'}
Model: "sequential"
_________________________________________________________________
 Layer (type)                Output Shape              Param #   
=================================================================
 gru (GRU)                   (None, 5, 96)             41184     
                                                                 
 gru_1 (GRU)                 (None, 5, 96)             55872     
                                                                 
 gru_2 (GRU)                 (None, 5, 96)             55872     
                                                                 
 gru_3 (GRU)                 (None, 5, 96)             55872     
                                                                 
 self_attention (SelfAttenti  (None, 96)               12544     
 on)                                                             
                                                                 
 dense (Dense)               (None, 25)                2425      
                                                                 
 dense_1 (Dense)             (None, 1)                 26        
                                                                 
=================================================================
Total params: 223,795
Trainable params: 223,795
Non-trainable params: 0
_________________________________________________________________
Epoch 1/20
 1/75 [..............................] - ETA: 10:14 - loss: 0.3765
…
